data.pth (torch, 14378 bytes, 6 tensors)

l1.weight f4 [8, 199]
0.26792008 0.550973 0.53639203 -0.22599643 -0.24817856 0.4772206 -1.1196454 0.019503476
0.4059736 0.26008448 -0.5379135 -0.6883628 -0.58054334 -0.95697236 -0.03635736 -0.03821911
0.46548817 -0.71126163 0.9424794 -0.2359094 0.053630248 0.6632627 -0.93357027 -0.5779758
0.18843429 0.28347152 -0.64798856 -0.23501319 0.6615224 0.69114333 -0.087854706 1.4811695
1.0193716 0.7329195 1.452412 0.49353045 0.5483394 -1.0781586 0.1064282 -0.7013777
0.31581452 0.24162075 -0.6606427 0.027862575 0.1165747 0.3909704 -0.37395924 0.0655534
0.15544493 -0.24940725 0.6357604 1.0453407 0.8738655 0.5860316 0.24662998 0.4930296
0.38676438 0.05978461 0.55992556 -0.13839954 1.0667506 1.0128846 1.2024416 0.60244113
0.5442271 -0.6576974 -0.39551777 0.65535444 0.5647153 0.5159886 -0.6614874 0.8185913
-0.12735516 -0.45447984 0.6659007 0.36184546 0.19529772 0.53972673 0.7791477 0.74338675
0.9572736 0.005368054 -0.8293597 0.9511079 -0.6199188 -0.6717853 -1.1404133 0.059285026
-1.3211645 -1.2106323 0.20280214 -0.9959999 -1.113314 -0.36071047 0.29205477 0.78533983
0.36848268 0.84848064 -0.04462276 -0.045797918 0.84674686 0.86253715 0.90329903 0.38692534
0.01578957 1.0705494 -0.29345816 -0.75274616 0.574661 -0.68769574 -0.63838744 1.2234013
0.39184883 -0.1497216 0.39374182 0.3270091 -0.13311912 0.6540792 0.5241638 0.23228411
0.07891817 -0.4343853 -0.11639124 -0.3602148 1.1832575 0.2723281 0.77041495 -0.92499745
0.61744714 0.81015366 -0.34333768 0.3205118 0.35716334 0.767312 -0.49413663 0.6547759
1.3638105 0.5789027 1.1026462 -0.99189466 -0.059319425 0.26229143 0.6000624 1.1005996
-0.84977615 -0.9259361 0.49240792 -1.2287955 0.5927742 1.4097533 -0.6418466 -1.0394465
0.5953189 0.2717066 0.33868918 -0.70905846 0.5436017 -0.46295917 -0.4934362 -0.007401968
-0.39811432 1.6146345 -0.052435055 0.79923666 0.33418092 0.6532579 -0.05286006 0.7369568
-0.40172893 0.93220687 0.49485728 0.024395714 -0.25952065 0.07772627 -0.5171414 0.7290825
-0.4357965 0.72952425 -0.74697536 0.94659644 -0.18264017 -0.010642918 -0.82280624 -0.13370866
0.5212179 0.17226811 -0.5739218 0.5548073 -0.032868154 0.56717783 -0.480114 1.040007
-0.45994306 0.5333599 -0.4202169 -0.06947946 0.585984 0.19839652 0.91166174 0.25953084
-0.24000166 -0.1671354 0.21125835 -0.4861651 -0.15246996 0.9944813 -0.37871403 -0.15465805
-0.8309454 -0.9336803 0.4388439 0.71773136 -0.42085534 -0.27544862 -0.4212077 0.23925711
-0.14847161 0.32099566 0.6795307 -0.32235318 -0.002259897 -0.46171173 -0.24868159 0.13564128
0.45462865 1.0064808 -0.13957973 0.35703936 0.6382547 0.61037284 1.0555557 1.194056
-0.16338865 -0.9916389 0.37223545 -0.15309814 0.26596302 0.3457767 0.10246951 -0.319682
-0.048390266 0.08128093 0.45925042 -0.21165226 0.21616296 0.3007881 -0.038186315 0.43686414
-0.7885586 0.57314676 -0.7371501 -0.3200467 0.4244417 0.020048648 0.042336922 -0.42244214
00000000: d22c 893e 910c 0d3f fd50 093f 9c6b 67be
00000010: 8522 7ebe 4256 f43e 8a50 8fbf c1c5 9f3c
00000020: c6db cf3e cb29 853e b3b4 09bf 8b38 30bf
00000030: 7d9e 14bf 24fc 74bf 75eb 14bd a48b 1cbd
00000040: 7754 ee3e 3e15 36bf 5446 713f 3c92 71be
00000050: 64ab 5b3d 96cb 293f 76fe 6ebf 39f6 13bf
00000060: ebf4 403e 2e23 913e 94e2 25bf 4ca7 70be
00000070: 8859 293f c5ee 303f 2bed b3bd f696 bd3f
00000080: c57a 823f 9da0 3b3f a3e8 b93f 06b0 fc3e
00000090: f95f 0c3f 1a01 8abf 07f7 d93d 7d8d 33bf
000000a0: 71b2 a13e 6e6b 773e e11f 29bf 0e40 e43c
000000b0: b7be ee3d 462d c83e 9677 bfbe dc40 863d
000000c0: f52c 1f3e 9d64 7fbe 32c1 223f b9cd 853f
000000d0: a6b5 5f3f 2b06 163f 928c 7c3e 606e fc3e
000000e0: fb05 c63e b5e0 743d 4857 0f3f 9cb8 0dbe
000000f0: 498b 883f 34a6 813f 9be9 993f 9539 1a3f
00000100: 7852 0b3f db5e 28bf 4e81 cabe 4fc5 273f
00000110: 2f91 103f d417 043f 3d57 29bf 338f 513f
00000120: 6469 02be 95b1 e8be 7878 2a3f cf43 b93e
00000130: 20fc 473e 882b 0a3f 3976 473f 984e 3e3f
00000140: e20f 753f 80e6 af3b eb50 54bf cf7b 733f
00000150: 00b3 1ebf 1ffa 2bbf 10f9 91bf dbd4 723d
00000160: eb1b a9bf 00f6 9abf 5dab 4f3e d9f9 7ebf
00000170: 1381 8ebf 0baf b8be 3488 953e 080c 493f
00000180: c3a9 bc3e 0736 593f 5bc6 36bd 9996 3bbd
00000190: 67c4 583f 3ccf 5c3f 9b3e 673f 141b c63e
000001a0: 2159 813c c307 893f 2640 96be f9b3 40bf
000001b0: fc1c 133f d40c 30bf 5c6d 23bf 6a98 9c3f
000001c0: 69a0 c83e 9e50 19be 8798 c93e bd6d a73e
000001d0: 6150 08be bc71 273f 992f 063f e3db 6d3e
000001e0: d99f a13d c067 debe 885e eebd 136e b8be
000001f0: fb74 973f 976e 8b3e ea39 453f a2cc 6cbf
00000200: 0411 1e3f 3b66 4f3f f5c9 afbe 1f1a a43e
00000210: 1dde b63e 8f6e 443f 7aff fcbe 659f 273f
00000220: 5891 ae3f f832 143f 8323 8d3f cfec 7dbf
00000230: edf8 72bd 104b 863e b09d 193f 73e0 8c3f
00000240: ee8a 59bf 260a 6dbf e41c fc3e 2c49 9dbf
00000250: 0dc0 173f cc72 b43f 0f50 24bf 950c 85bf
00000260: d266 183f 211d 8b3e ab68 ad3e db84 35bf
00000270: 7b29 0b3f fc08 edbe aba3 fcbe 358c f2bb
00000280: a4d5 cbbe 58ac ce3f 24c6 56bd c69a 4c3f
00000290: c319 ab3e e93b 273f ca83 58bd 33a9 3c3f
000002a0: 6aaf cdbe 1ca5 6e3f ef5d fd3e 85d9 c73c
000002b0: e4df 84be f32e 9f3d 6163 04bf 27a5 3a3f
000002c0: b820 dfbe 1ac2 3a3f c739 3fbf 2554 723f
000002d0: 0606 3bbe a25f 2ebc 6ea3 52bf ecea 08be
000002e0: 896e 053f 0d67 303e 8aec 12bf da07 0e3f
000002f0: c2a0 06bd 9132 113f 81d1 f5be f31e 853f
00000300: a87d ebbe 468a 083f ab26 d7be 3f4b 8ebd
00000310: 0c03 163f 7528 4b3e aa62 693f 3ae1 843e
00000320: ffc2 75be 8b25 2bbe 1c54 583e a2ea f8be
00000330: 1621 1cbe 5496 7e3f cee6 c1be ae5e 1ebe
00000340: d6b8 54bf ac05 6fbf 26b0 e03e 3ebd 373f
00000350: 5a7a d7be 9a07 8dbe 89a8 d7be d1ff 743e
00000360: f108 18be 8b59 a43e b9f5 2d3f 7a0b a5be
00000370: c81a 14bb 7b65 ecbe 63a6 7ebe 8ce5 0a3e
00000380: 16c5 e83e 5dd4 803f fded 0ebe ddcd b63e
00000390: a964 233f 6541 1c3f 731c 873f d4d6 983f
000003a0: 5b4f 27be 0cdc 7dbf a595 be3e c2c5 1cbe
000003b0: 4e2c 883e a509 b13e 89db d13d 5cad a3be
000003c0: df34 46bd 9e76 a63d df22 eb3e 5fbb 58be
000003d0: d359 5d3e e600 9a3e 4169 1cbd a8ac df3e
000003e0: fade 49bf bfb9 123f deb5 3cbf 29dd a3be
000003f0: 6c50 d93e 103d a43c 7b69 2d3d 564a d8be

l1.bias f4 [8]
1.4236122 0.93162364 1.5189799 1.8969436 0.96329385 0.95682895 1.25919 1.1698844
00000000: ed38 b63f e37e 6e3f ef6d c23f 0ccf f23f
00000010: 6d9a 763f bef2 743f 232d a13f c6be 953f

l2.weight f4 [8, 8]
-2.0075758 0.5743399 1.7692969 2.1298585 -0.69492465 2.4074237 0.780264 0.41429102
0.7888486 0.0040797247 -1.6892176 1.5365992 2.8779528 3.4358454 2.0347924 0.7284125
1.8184242 -1.5058892 -0.50137717 2.2960455 -0.8885232 -1.2476671 -0.09189013 2.3527672
-1.9805048 0.6745244 1.5584687 1.5567077 -1.3815305 -0.4732602 1.0428747 1.8291693
0.3470723 2.4868004 1.8280665 0.6600276 -1.9950294 1.0551994 -1.1984164 0.06027134
2.4443843 -0.4033218 1.6972393 1.8242009 2.2645638 1.2918046 -0.24882197 -2.5518386
1.6656615 3.18396 1.4715303 -1.0223463 -0.63821346 -1.0999802 3.6235647 0.32265788
0.19773835 -1.8853692 2.7386403 -0.32626617 0.55235004 -0.9860368 -0.3770316 1.6337417
00000000: 1f7c 00c0 f107 133f 5278 e23f 9a4f 0840
00000010: 95e6 31bf 3b13 1a40 62bf 473f f41d d43e
00000020: fbf1 493f 36af 853b 4838 d8bf 48af c43f
00000030: 6130 3840 e4e4 5b40 0a3a 0240 3e79 3a3f
00000040: 20c2 e83f fac0 c0bf 415a 00bf 69f2 1240
00000050: 4276 63bf 8eb3 9fbf e430 bcbd bd93 1640
00000060: 2e81 fdbf a2ad 2c3f e77b c73f 3342 c73f
00000070: fed5 b0bf 294f f2be eb7c 853f 3822 ea3f
00000080: 76b3 b13e bd27 1f40 15fe e93f 92f7 283f
00000090: 205d ffbf c610 873f b565 99bf 15df 763d
000000a0: cb70 1c40 3280 cebe 233f d93f 6a7f e93f
000000b0: 9dee 1040 da59 a53f 30cb 7ebe 5351 23c0
000000c0: 6534 d53f 00c6 4b40 1b5b bc3f 3edc 82bf
000000d0: f561 23bf 27cc 8cbf 7ce8 6740 6a33 a53e
000000e0: ec7b 4a3e c753 f1bf e245 2f40 5c0c a7be
000000f0: d066 0d3f e86c 7cbf 490a c1be 731e d13f

l2.bias f4 [8]
0.31857502 0.33922842 1.0609927 0.42004392 0.37095237 0.7995122 0.3525725 0.8016783
00000000: 441c a33e 59af ad3e 9cce 873f ff0f d73e
00000010: 78ed bd3e d5ac 4c3f 6284 b43e ca3a 4d3f

l3.weight f4 [47, 8]
-0.5196409 -0.30461502 0.47566667 0.16801792 -3.600736 -1.2647114 0.42017326 -0.17102186
0.75465775 0.08001838 0.033112288 0.43107253 -0.04618855 -1.736074 -2.174069 -0.9225609
0.23782164 0.36987576 0.61689866 -0.05475699 -3.111646 -1.0706209 -0.4044809 -1.8289514
-0.11581629 0.20914064 0.0574217 -1.0471846 -1.0588404 -0.09508629 -0.17805536 -2.2777362
-0.19237316 -1.1998501 -0.46001542 -0.41260767 0.21497896 0.041637633 0.6233239 -2.0466707
0.5209707 -0.039233178 -0.37593395 0.54737526 -0.42318183 -4.1764774 -0.03549529 0.012622411
-0.22492044 -0.7079642 -0.021769902 0.33279946 -1.9166695 -3.0199707 0.59497714 0.5806853
0.24797168 0.03507998 -0.4218174 -0.26281518 0.24031547 0.034271017 -1.5710653 -3.40969
0.3630803 0.05618269 0.5272928 0.50553083 -2.0993629 -2.7378016 -0.4523712 0.009303359
-0.29445648 -0.48931995 -1.6100056 0.045811314 -2.8228085 0.055621263 0.6142636 -0.1555449
-3.47874 0.4645297 -0.23794445 -1.5235018 -2.9966486 0.6371067 -0.558393 -0.92382437
-0.9188386 0.66322947 -0.23411965 -0.99716455 -2.3432071 -1.2140743 0.66203386 -1.4118102
0.0590853 0.1331418 -2.0132737 -2.0053575 -0.8389727 0.1570167 0.3684383 -2.8363848
-1.3897693 0.51212406 -2.6843903 -1.5624965 -2.3377874 0.8641004 -0.5172553 -1.9771637
-2.8645275 0.07171523 -3.6154022 -1.6700262 -1.7392776 0.6807129 0.27942294 -0.040451206
0.53218263 0.6814587 -0.89492965 -0.41010076 -3.418634 -0.5272839 -0.6566078 -2.1121364
-0.8129717 -0.0011940128 -1.3983269 -2.9481387 -2.6689088 0.6142997 -0.39567044 0.02370059
-0.5797458 -1.1085902 -0.19620779 -0.9709468 -1.3902242 0.3892202 0.09251587 0.45986822
0.37453547 0.25268662 -3.6509671 -1.2293612 -2.8536353 0.2845009 -0.39377177 -0.63906956
0.5311212 0.6347828 -2.1725392 -0.9847114 -1.1714613 0.16935457 -2.171452 -3.1242027
0.103595085 0.18331109 0.17027935 -3.117045 -0.12878187 0.3295392 -3.0626318 -1.6564442
-2.7545316 -0.15021548 0.51334554 -3.07207 -3.4811878 -0.51044434 0.6764089 0.18467224
-2.0814822 -1.7425252 0.68054825 -2.6379232 0.6059825 0.15613395 -0.03993053 -0.35493305
0.055067644 -0.35035646 0.87671214 0.39232734 -0.85814774 -1.3952928 -2.042281 0.2997979
0.5200034 -0.02952618 -1.0650542 0.31841353 0.372948 -2.0545442 0.437461 -1.6069323
0.6246334 -0.30839223 -2.368802 0.31921184 -0.5426139 0.1097021 -0.05018606 -2.287817
-0.018816276 0.6785412 0.0032934211 -3.1615636 -2.7831707 0.32133785 -1.4919984 -3.5867975
-3.4890544 0.43970922 -0.83173275 -1.3383763 -2.0967746 0.2854993 0.54313064 -3.5749006
0.48784038 -1.0740235 -2.7903395 -0.25058356 -0.3177937 0.10535718 -0.4385083 0.8992389
-0.68658525 -0.27129754 0.6974247 0.108036965 -3.3591082 0.13235302 -1.0312378 -0.13630624
-2.2091742 -0.20955493 0.22481993 -2.0901966 -0.6369328 0.4834379 0.10315907 -1.5761515
-0.85956806 -0.66763246 0.43230787 -0.27982572 -0.014179569 -1.2313666 0.37135735 -0.059739772
00000000: 3007 05bf 80f6 9bbe 958a f33e e40c 2c3e
00000010: 7572 66c0 10e2 a1bf f320 d73e 5b20 2fbe
00000020: 4031 413f ade0 a33d c0a0 073d 8ab5 dc3e
00000030: 3430 3dbd ac37 debf f223 0bc0 f32c 6cbf
00000040: 8487 733e 5b60 bd3e 12ed 1d3f de48 60bd
00000050: 3525 47c0 1b0a 89bf 1f18 cfbe 141b eabf
00000060: 1731 edbd f728 563e 0433 6b3d 250a 86bf
00000070: 1588 87bf 9abc c2bd 2554 36be 6ec6 11c0
00000080: 78fd 44be b094 99bf 2487 ebbe 5041 d3be
00000090: 7223 5c3e 398c 2a3d 2892 1f3f a7fc 02c0
000000a0: 565e 053f f8b2 20bd 6a7a c0be c920 0c3f
000000b0: 4aab d8be b4a5 85c0 8263 11bd 3bce 4e3c
000000c0: 8b51 66be 243d 35bf cb56 b2bc b164 aa3e
000000d0: 6d55 f5bf 3347 41c0 6c50 183f cba7 143f
000000e0: 4aec 7d3e 06b0 0f3d 73f8 d7be b68f 86be
000000f0: 4215 763e c45f 0c3d ab18 c9bf 5c38 5ac0
00000100: a9e5 b93e d21f 663d a9fc 063f 786a 013f
00000110: f65b 06c0 2438 2fc0 339d e7be 1e6d 183c
00000120: 00c3 96be 2588 fabe aa14 cebf a5a4 3b3d
00000130: e5a8 34c0 1fd3 633d 6140 1d3f 2a47 1fbe
00000140: ada3 5ec0 d6d6 ed3e b6a7 73be 1b02 c3bf
00000150: 17c9 3fc0 6d19 233f d8f2 0ebf c17f 6cbf
00000160: 0239 6bbf 68c9 293f 10bd 6fbe 2d46 7fbf
00000170: 1bf7 15c0 c966 9bbf 0d7b 293f 32b6 b4bf
00000180: 6d03 723d 5356 083e 7ad9 00c0 c757 00c0
00000190: eac6 56bf fcc8 203e f2a3 bc3e 5487 35c0
000001a0: f6e3 b1bf 901a 033f 0dcd 2bc0 e3ff c7bf
000001b0: 4f9e 15c0 af35 5d3f d86a 04bf b313 fdbf
000001c0: 6b54 37c0 6fdf 923d c062 67c0 6bc3 d5bf
000001d0: a6a0 debf 3343 2e3f 8610 8f3e 2ab0 25bd
000001e0: 1f3d 083f 1474 2e3f 1c1a 65bf baf8 d1be
000001f0: e6ca 5ac0 14fc 06bf 7317 28bf 3e2d 07c0
00000200: ea1e 50bf 6c80 9cba 60fc b2bf 4eae 3cc0
00000210: 67cf 2ac0 bf42 1d3f 5195 cabe bd27 c23c
00000220: 396a 14bf 49e6 8dbf b2ea 48be f88f 78bf
00000230: def2 b1bf df47 c73e f678 bd3d d973 eb3e
00000240: 1dc3 bf3e 2460 813e 72a9 69c0 b55b 9dbf
00000250: f6a1 36c0 1aaa 913e 749c c9be 109a 23bf
00000260: 8ff7 073f 2081 223f e20a 0bc0 0c16 7cbf
00000270: 72f2 95bf 496b 2d3e 12f9 0ac0 f0f2 47c0
00000280: a929 d43d e7b5 3b3e b65d 2e3e aa7d 47c0
00000290: 65df 03be 5db9 a83e 2902 44c0 5d06 d4bf
000002a0: 3f4a 30c0 16d2 19be 9d6a 033f cb9c 44c0
000002b0: c8cb 5ec0 7bac 02bf 2229 2d3f b81a 3d3e
000002c0: 0137 05c0 110b dfbf 6938 2e3f bcd3 28c0
000002d0: ab21 1b3f 94e1 1f3e 328e 23bd c9b9 b5be
000002e0: 9c8e 613d ec61 b3be 3570 603f 21df c83e
000002f0: 92af 5bbf f498 b2bf bbb4 02c0 1c7f 993e
00000300: f11e 053f e3e0 f1bc b253 88bf 1907 a33e
00000310: 0af3 be3e a77d 03c0 e3fa df3e f5af cdbf
00000320: f9e7 1f3f 96e5 9dbe 749a 17c0 bc6f a33e
00000330: bfe8 0abf 7fab e03d e68f 4dbd 986b 12c0
00000340: 9724 9abc e0b4 2d3f 70d6 573b 0f57 4ac0
00000350: 781f 32c0 6586 a43e cef9 bebf 178e 65c0
00000360: ab4c 5fc0 9121 e13e 70ec 54bf ea4f abbf
00000370: 8e31 06c0 f72c 923e 9c0a 0b3f 2ccb 64c0
00000380: 37c6 f93e 9a79 89bf ec94 32c0 7d4c 80be
00000390: dbb5 a2be 81c5 d73d 2984 e0be 8534 663f
000003a0: 0dc4 2fbf 83e7 8abe 6d8a 323f 7c42 dd3d
000003b0: a1fb 56c0 8d87 073e 9aff 83bf dd93 0bbe
000003c0: 1c63 0dc0 9195 56be 3237 663e c8c5 05c0
000003d0: 070e 23bf 2c85 f73e 1045 d33d 55bf c9bf
000003e0: a70c 5cbf f6e9 2abf 7557 dd3e 5145 8fbe
000003f0: 6c51 68bc 6c9d 9dbf 8d22 be3e b1b1 74bd

l3.bias f4 [47]
-0.06536502 -0.23564968 -0.28472763 -0.5973869 -0.06694181 -0.067405105 -0.17129333 0.19335577
-0.02322531 0.17312692 0.087455496 0.20294695 -0.43585956 0.06389425 0.37856805 0.05854149
-0.09108354 -0.13954304 0.23955666 0.06558818 -0.12712823 0.16953227 0.06575398 0.031404752
0.19438075 -0.10079933 0.2740816 0.53604746 0.49056485 -0.1858275 -0.5186471 0.2859396
0.455254 0.6902086 0.091432795 -0.43138322 -0.2852541 0.09389621 -0.061857317 -0.07750899
-0.14197907 -0.30962053 -0.062088106 -0.18325837 -0.11878369 -0.05334728 0.16449441
00000000: 18de 85bd 264e 71be d2c7 91be 59ee 18bf
00000010: ca18 89bd b00b 8abd 8567 2fbe 0eff 453e
00000020: 0143 bebc 2f48 313e de1b b33d 53d1 4f3e
00000030: fc28 dfbe fdda 823d acd3 c13e 34c9 6f3d
00000040: 028a babd 5fe4 0ebe 574e 753e 1953 863d
00000050: e72d 02be de99 2d3e 06aa 863d 45a2 003d
00000060: bf0b 473e e16f cebd 6c54 8c3e 683a 093f
00000070: 512b fb3e 9049 3ebe 0ec6 04bf ad66 923e
00000080: 0d17 e93e 83b1 303f 1e41 bb3d 43de dcbe
00000090: d30c 92be a84c c03d 195e 7dbd 09bd 9ebd
000000a0: f662 11be 9586 9ebe 1950 7ebd 15a8 3bbe
000000b0: dd44 f3bd ad82 5abd 3971 283e
